…
/home/ahmadikalkhorani.1/anaconda3/envs/deepcasa/lib/python3.8/site-packages/pytorch_lightning/utilities/seed.py:48: LightningDeprecationWarning: `pytorch_lightning.utilities.seed.seed_everything` has been deprecated in v1.8.0 and will be removed in v1.10.0. Please use `lightning_lite.utilities.seed.seed_everything` instead.
  rank_zero_deprecation(
Global seed set to 0
GPU available: True (cuda), used: True
TPU available: False, using: 0 TPU cores
IPU available: False, using: 0 IPUs
HPU available: False, using: 0 HPUs
/scratch/vahid/melgan/mel2wav/modules.py:42: FutureWarning: Pass sr=22050, n_fft=1024, n_mels=80, fmin=0.0, fmax=None as keyword args. From version 0.10 passing these as positional arguments will result in an error
  mel_basis = librosa_mel_fn(
Sequential(
  (0): Generator(
    (model): Sequential(
      (0): ReflectionPad1d((3, 3))
      (1): Conv1d(80, 512, kernel_size=(7,), stride=(1,))
      (2): LeakyReLU(negative_slope=0.2)
      (3): ConvTranspose1d(512, 256, kernel_size=(16,), stride=(8,), padding=(4,))
      (4): ResnetBlock(
        (block): Sequential(
          (0): LeakyReLU(negative_slope=0.2)
          (1): ReflectionPad1d((1, 1))
          (2): Conv1d(256, 256, kernel_size=(3,), stride=(1,))
          (3): LeakyReLU(negative_slope=0.2)
          (4): Conv1d(256, 256, kernel_size=(1,), stride=(1,))
        )
        (shortcut): Conv1d(256, 256, kernel_size=(1,), stride=(1,))
      )
      (5): ResnetBlock(
        (block): Sequential(
          (0): LeakyReLU(negative_slope=0.2)
          (1): ReflectionPad1d((3, 3))
          (2): Conv1d(256, 256, kernel_size=(3,), stride=(1,), dilation=(3,))
          (3): LeakyReLU(negative_slope=0.2)
          (4): Conv1d(256, 256, kernel_size=(1,), stride=(1,))
        )
        (shortcut): Conv1d(256, 256, kernel_size=(1,), stride=(1,))
      )
      (6): ResnetBlock(
        (block): Sequential(
          (0): LeakyReLU(negative_slope=0.2)
          (1): ReflectionPad1d((9, 9))
          (2): Conv1d(256, 256, kernel_size=(3,), stride=(1,), dilation=(9,))
          (3): LeakyReLU(negative_slope=0.2)
          (4): Conv1d(256, 256, kernel_size=(1,), stride=(1,))
        )
        (shortcut): Conv1d(256, 256, kernel_size=(1,), stride=(1,))
      )
      (7): LeakyReLU(negative_slope=0.2)
      (8): ConvTranspose1d(256, 128, kernel_size=(16,), stride=(8,), padding=(4,))
      (9): ResnetBlock(
        (block): Sequential(
          (0): LeakyReLU(negative_slope=0.2)
          (1): ReflectionPad1d((1, 1))
          (2): Conv1d(128, 128, kernel_size=(3,), stride=(1,))
          (3): LeakyReLU(negative_slope=0.2)
          (4): Conv1d(128, 128, kernel_size=(1,), stride=(1,))
        )
        (shortcut): Conv1d(128, 128, kernel_size=(1,), stride=(1,))
      )
      (10): ResnetBlock(
        (block): Sequential(
          (0): LeakyReLU(negative_slope=0.2)
          (1): ReflectionPad1d((3, 3))
          (2): Conv1d(128, 128, kernel_size=(3,), stride=(1,), dilation=(3,))
          (3): LeakyReLU(negative_slope=0.2)
          (4): Conv1d(128, 128, kernel_size=(1,), stride=(1,))
        )
        (shortcut): Conv1d(128, 128, kernel_size=(1,), stride=(1,))
      )
      (11): ResnetBlock(
        (block): Sequential(
          (0): LeakyReLU(negative_slope=0.2)
          (1): ReflectionPad1d((9, 9))
          (2): Conv1d(128, 128, kernel_size=(3,), stride=(1,), dilation=(9,))
          (3): LeakyReLU(negative_slope=0.2)
          (4): Conv1d(128, 128, kernel_size=(1,), stride=(1,))
        )
        (shortcut): Conv1d(128, 128, kernel_size=(1,), stride=(1,))
      )
      (12): LeakyReLU(negative_slope=0.2)
      (13): ConvTranspose1d(128, 64, kernel_size=(4,), stride=(2,), padding=(1,))
      (14): ResnetBlock(
        (block): Sequential(
          (0): LeakyReLU(negative_slope=0.2)
          (1): ReflectionPad1d((1, 1))
          (2): Conv1d(64, 64, kernel_size=(3,), stride=(1,))
          (3): LeakyReLU(negative_slope=0.2)
          (4): Conv1d(64, 64, kernel_size=(1,), stride=(1,))
        )
        (shortcut): Conv1d(64, 64, kernel_size=(1,), stride=(1,))
      )
      (15): ResnetBlock(
        (block): Sequential(
          (0): LeakyReLU(negative_slope=0.2)
          (1): ReflectionPad1d((3, 3))
          (2): Conv1d(64, 64, kernel_size=(3,), stride=(1,), dilation=(3,))
          (3): LeakyReLU(negative_slope=0.2)
          (4): Conv1d(64, 64, kernel_size=(1,), stride=(1,))
        )
        (shortcut): Conv1d(64, 64, kernel_size=(1,), stride=(1,))
      )
      (16): ResnetBlock(
        (block): Sequential(
          (0): LeakyReLU(negative_slope=0.2)
          (1): ReflectionPad1d((9, 9))
          (2): Conv1d(64, 64, kernel_size=(3,), stride=(1,), dilation=(9,))
          (3): LeakyReLU(negative_slope=0.2)
          (4): Conv1d(64, 64, kernel_size=(1,), stride=(1,))
        )
        (shortcut): Conv1d(64, 64, kernel_size=(1,), stride=(1,))
      )
      (17): LeakyReLU(negative_slope=0.2)
      (18): ConvTranspose1d(64, 32, kernel_size=(4,), stride=(2,), padding=(1,))
      (19): ResnetBlock(
        (block): Sequential(
          (0): LeakyReLU(negative_slope=0.2)
          (1): ReflectionPad1d((1, 1))
          (2): Conv1d(32, 32, kernel_size=(3,), stride=(1,))
          (3): LeakyReLU(negative_slope=0.2)
          (4): Conv1d(32, 32, kernel_size=(1,), stride=(1,))
        )
        (shortcut): Conv1d(32, 32, kernel_size=(1,), stride=(1,))
      )
      (20): ResnetBlock(
        (block): Sequential(
          (0): LeakyReLU(negative_slope=0.2)
          (1): ReflectionPad1d((3, 3))
          (2): Conv1d(32, 32, kernel_size=(3,), stride=(1,), dilation=(3,))
          (3): LeakyReLU(negative_slope=0.2)
          (4): Conv1d(32, 32, kernel_size=(1,), stride=(1,))
        )
        (shortcut): Conv1d(32, 32, kernel_size=(1,), stride=(1,))
      )
      (21): ResnetBlock(
        (block): Sequential(
          (0): LeakyReLU(negative_slope=0.2)
          (1): ReflectionPad1d((9, 9))
          (2): Conv1d(32, 32, kernel_size=(3,), stride=(1,), dilation=(9,))
          (3): LeakyReLU(negative_slope=0.2)
          (4): Conv1d(32, 32, kernel_size=(1,), stride=(1,))
        )
        (shortcut): Conv1d(32, 32, kernel_size=(1,), stride=(1,))
      )
      (22): LeakyReLU(negative_slope=0.2)
      (23): ReflectionPad1d((3, 3))
      (24): Conv1d(32, 1, kernel_size=(7,), stride=(1,))
      (25): Tanh()
    )
  )
  (1): Resample()
)
/home/ahmadikalkhorani.1/anaconda3/envs/deepcasa/lib/python3.8/site-packages/pytorch_lightning/trainer/connectors/checkpoint_connector.py:175: UserWarning: .fit(ckpt_path="last") is set, but there is no fault tolerant or last checkpoint available. No checkpoint will be loaded.
  rank_zero_warn(
/home/ahmadikalkhorani.1/anaconda3/envs/deepcasa/lib/python3.8/site-packages/pytorch_lightning/loops/utilities.py:94: PossibleUserWarning: `max_epochs` was not set. Setting it to 1000 epochs. To train without an epoch limit, set `max_epochs=-1`.
…
