…
----------------------------------------------------------------------------------------------------

LOCAL_RANK: 0 - CUDA_VISIBLE_DEVICES: [0,2]
LOCAL_RANK: 1 - CUDA_VISIBLE_DEVICES: [0,2]

  | Name | Type          | Params
---------------------------------------
0 | netD | Discriminator | 16.9 M
1 | fft  | Sequential    | 0     
2 | netG | Sequential    | 4.3 M 
---------------------------------------
21.2 M    Trainable params
0         Non-trainable params
21.2 M    Total params
84.761    Total estimated model params size (MB)
CUDA is Available:  True
Sequential(
  (0): Generator(
    (model): Sequential(
      (0): ReflectionPad1d((3, 3))
      (1): Conv1d(80, 512, kernel_size=(7,), stride=(1,))
      (2): LeakyReLU(negative_slope=0.2)
      (3): ConvTranspose1d(512, 256, kernel_size=(16,), stride=(8,), padding=(4,))
      (4): ResnetBlock(
        (block): Sequential(
          (0): LeakyReLU(negative_slope=0.2)
          (1): ReflectionPad1d((1, 1))
          (2): Conv1d(256, 256, kernel_size=(3,), stride=(1,))
          (3): LeakyReLU(negative_slope=0.2)
          (4): Conv1d(256, 256, kernel_size=(1,), stride=(1,))
        )
        (shortcut): Conv1d(256, 256, kernel_size=(1,), stride=(1,))
      )
      (5): ResnetBlock(
        (block): Sequential(
          (0): LeakyReLU(negative_slope=0.2)
          (1): ReflectionPad1d((3, 3))
          (2): Conv1d(256, 256, kernel_size=(3,), stride=(1,), dilation=(3,))
          (3): LeakyReLU(negative_slope=0.2)
          (4): Conv1d(256, 256, kernel_size=(1,), stride=(1,))
        )
        (shortcut): Conv1d(256, 256, kernel_size=(1,), stride=(1,))
      )
      (6): ResnetBlock(
        (block): Sequential(
          (0): LeakyReLU(negative_slope=0.2)
          (1): ReflectionPad1d((9, 9))
          (2): Conv1d(256, 256, kernel_size=(3,), stride=(1,), dilation=(9,))
          (3): LeakyReLU(negative_slope=0.2)
          (4): Conv1d(256, 256, kernel_size=(1,), stride=(1,))
        )
        (shortcut): Conv1d(256, 256, kernel_size=(1,), stride=(1,))
      )
      (7): LeakyReLU(negative_slope=0.2)
      (8): ConvTranspose1d(256, 128, kernel_size=(16,), stride=(8,), padding=(4,))
      (9): ResnetBlock(
        (block): Sequential(
          (0): LeakyReLU(negative_slope=0.2)
          (1): ReflectionPad1d((1, 1))
          (2): Conv1d(128, 128, kernel_size=(3,), stride=(1,))
          (3): LeakyReLU(negative_slope=0.2)
          (4): Conv1d(128, 128, kernel_size=(1,), stride=(1,))
        )
        (shortcut): Conv1d(128, 128, kernel_size=(1,), stride=(1,))
      )
      (10): ResnetBlock(
        (block): Sequential(
          (0): LeakyReLU(negative_slope=0.2)
          (1): ReflectionPad1d((3, 3))
          (2): Conv1d(128, 128, kernel_size=(3,), stride=(1,), dilation=(3,))
          (3): LeakyReLU(negative_slope=0.2)
          (4): Conv1d(128, 128, kernel_size=(1,), stride=(1,))
        )
        (shortcut): Conv1d(128, 128, kernel_size=(1,), stride=(1,))
      )
      (11): ResnetBlock(
        (block): Sequential(
          (0): LeakyReLU(negative_slope=0.2)
          (1): ReflectionPad1d((9, 9))
          (2): Conv1d(128, 128, kernel_size=(3,), stride=(1,), dilation=(9,))
          (3): LeakyReLU(negative_slope=0.2)
          (4): Conv1d(128, 128, kernel_size=(1,), stride=(1,))
        )
        (shortcut): Conv1d(128, 128, kernel_size=(1,), stride=(1,))
      )
      (12): LeakyReLU(negative_slope=0.2)
      (13): ConvTranspose1d(128, 64, kernel_size=(4,), stride=(2,), padding=(1,))
      (14): ResnetBlock(
        (block): Sequential(
          (0): LeakyReLU(negative_slope=0.2)
          (1): ReflectionPad1d((1, 1))
          (2): Conv1d(64, 64, kernel_size=(3,), stride=(1,))
          (3): LeakyReLU(negative_slope=0.2)
          (4): Conv1d(64, 64, kernel_size=(1,), stride=(1,))
        )
        (shortcut): Conv1d(64, 64, kernel_size=(1,), stride=(1,))
      )
      (15): ResnetBlock(
        (block): Sequential(
          (0): LeakyReLU(negative_slope=0.2)
          (1): ReflectionPad1d((3, 3))
          (2): Conv1d(64, 64, kernel_size=(3,), stride=(1,), dilation=(3,))
          (3): LeakyReLU(negative_slope=0.2)
          (4): Conv1d(64, 64, kernel_size=(1,), stride=(1,))
        )
        (shortcut): Conv1d(64, 64, kernel_size=(1,), stride=(1,))
      )
      (16): ResnetBlock(
        (block): Sequential(
          (0): LeakyReLU(negative_slope=0.2)
          (1): ReflectionPad1d((9, 9))
          (2): Conv1d(64, 64, kernel_size=(3,), stride=(1,), dilation=(9,))
          (3): LeakyReLU(negative_slope=0.2)
          (4): Conv1d(64, 64, kernel_size=(1,), stride=(1,))
        )
        (shortcut): Conv1d(64, 64, kernel_size=(1,), stride=(1,))
      )
      (17): LeakyReLU(negative_slope=0.2)
      (18): ConvTranspose1d(64, 32, kernel_size=(4,), stride=(2,), padding=(1,))
      (19): ResnetBlock(
        (block): Sequential(
          (0): LeakyReLU(negative_slope=0.2)
          (1): ReflectionPad1d((1, 1))
          (2): Conv1d(32, 32, kernel_size=(3,), stride=(1,))
          (3): LeakyReLU(negative_slope=0.2)
          (4): Conv1d(32, 32, kernel_size=(1,), stride=(1,))
        )
        (shortcut): Conv1d(32, 32, kernel_size=(1,), stride=(1,))
      )
      (20): ResnetBlock(
        (block): Sequential(
          (0): LeakyReLU(negative_slope=0.2)
          (1): ReflectionPad1d((3, 3))
          (2): Conv1d(32, 32, kernel_size=(3,), stride=(1,), dilation=(3,))
          (3): LeakyReLU(negative_slope=0.2)
          (4): Conv1d(32, 32, kernel_size=(1,), stride=(1,))
        )
        (shortcut): Conv1d(32, 32, kernel_size=(1,), stride=(1,))
      )
      (21): ResnetBlock(
        (block): Sequential(
          (0): LeakyReLU(negative_slope=0.2)
          (1): ReflectionPad1d((9, 9))
          (2): Conv1d(32, 32, kernel_size=(3,), stride=(1,), dilation=(9,))
          (3): LeakyReLU(negative_slope=0.2)
          (4): Conv1d(32, 32, kernel_size=(1,), stride=(1,))
        )
        (shortcut): Conv1d(32, 32, kernel_size=(1,), stride=(1,))
      )
      (22): LeakyReLU(negative_slope=0.2)
      (23): ReflectionPad1d((3, 3))
      (24): Conv1d(32, 1, kernel_size=(7,), stride=(1,))
      (25): Tanh()
    )
  )
  (1): Resample()
)
Sanity Checking: 0it [00:00, ?it/s]CUDA is Available:  True
Sequential(
  (0): Generator(
    (model): Sequential(
      (0): ReflectionPad1d((3, 3))
      (1): Conv1d(80, 512, kernel_size=(7,), stride=(1,))
      (2): LeakyReLU(negative_slope=0.2)
      (3): ConvTranspose1d(512, 256, kernel_size=(16,), stride=(8,), padding=(4,))
      (4): ResnetBlock(
        (block): Sequential(
          (0): LeakyReLU(negative_slope=0.2)
          (1): ReflectionPad1d((1, 1))
          (2): Conv1d(256, 256, kernel_size=(3,), stride=(1,))
          (3): LeakyReLU(negative_slope=0.2)
          (4): Conv1d(256, 256, kernel_size=(1,), stride=(1,))
        )
        (shortcut): Conv1d(256, 256, kernel_size=(1,), stride=(1,))
      )
      (5): ResnetBlock(
        (block): Sequential(
          (0): LeakyReLU(negative_slope=0.2)
          (1): ReflectionPad1d((3, 3))
          (2): Conv1d(256, 256, kernel_size=(3,), stride=(1,), dilation=(3,))
          (3): LeakyReLU(negative_slope=0.2)
          (4): Conv1d(256, 256, kernel_size=(1,), stride=(1,))
        )
        (shortcut): Conv1d(256, 256, kernel_size=(1,), stride=(1,))
      )
      (6): ResnetBlock(
        (block): Sequential(
          (0): LeakyReLU(negative_slope=0.2)
          (1): ReflectionPad1d((9, 9))
          (2): Conv1d(256, 256, kernel_size=(3,), stride=(1,), dilation=(9,))
          (3): LeakyReLU(negative_slope=0.2)
          (4): Conv1d(256, 256, kernel_size=(1,), stride=(1,))
        )
        (shortcut): Conv1d(256, 256, kernel_size=(1,), stride=(1,))
      )
      (7): LeakyReLU(negative_slope=0.2)
      (8): ConvTranspose1d(256, 128, kernel_size=(16,), stride=(8,), padding=(4,))
      (9): ResnetBlock(
        (block): Sequential(
          (0): LeakyReLU(negative_slope=0.2)
          (1): ReflectionPad1d((1, 1))
          (2): Conv1d(128, 128, kernel_size=(3,), stride=(1,))
          (3): LeakyReLU(negative_slope=0.2)
          (4): Conv1d(128, 128, kernel_size=(1,), stride=(1,))
        )
        (shortcut): Conv1d(128, 128, kernel_size=(1,), stride=(1,))
      )
      (10): ResnetBlock(
        (block): Sequential(
          (0): LeakyReLU(negative_slope=0.2)
          (1): ReflectionPad1d((3, 3))
          (2): Conv1d(128, 128, kernel_size=(3,), stride=(1,), dilation=(3,))
          (3): LeakyReLU(negative_slope=0.2)
          (4): Conv1d(128, 128, kernel_size=(1,), stride=(1,))
        )
        (shortcut): Conv1d(128, 128, kernel_size=(1,), stride=(1,))
      )
      (11): ResnetBlock(
        (block): Sequential(
          (0): LeakyReLU(negative_slope=0.2)
          (1): ReflectionPad1d((9, 9))
          (2): Conv1d(128, 128, kernel_size=(3,), stride=(1,), dilation=(9,))
          (3): LeakyReLU(negative_slope=0.2)
          (4): Conv1d(128, 128, kernel_size=(1,), stride=(1,))
        )
        (shortcut): Conv1d(128, 128, kernel_size=(1,), stride=(1,))
      )
      (12): LeakyReLU(negative_slope=0.2)
      (13): ConvTranspose1d(128, 64, kernel_size=(4,), stride=(2,), padding=(1,))
      (14): ResnetBlock(
        (block): Sequential(
          (0): LeakyReLU(negative_slope=0.2)
          (1): ReflectionPad1d((1, 1))
          (2): Conv1d(64, 64, kernel_size=(3,), stride=(1,))
          (3): LeakyReLU(negative_slope=0.2)
          (4): Conv1d(64, 64, kernel_size=(1,), stride=(1,))
        )
        (shortcut): Conv1d(64, 64, kernel_size=(1,), stride=(1,))
      )
      (15): ResnetBlock(
        (block): Sequential(
          (0): LeakyReLU(negative_slope=0.2)
          (1): ReflectionPad1d((3, 3))
          (2): Conv1d(64, 64, kernel_size=(3,), stride=(1,), dilation=(3,))
          (3): LeakyReLU(negative_slope=0.2)
          (4): Conv1d(64, 64, kernel_size=(1,), stride=(1,))
        )
        (shortcut): Conv1d(64, 64, kernel_size=(1,), stride=(1,))
      )
      (16): ResnetBlock(
        (block): Sequential(
          (0): LeakyReLU(negative_slope=0.2)
          (1): ReflectionPad1d((9, 9))
          (2): Conv1d(64, 64, kernel_size=(3,), stride=(1,), dilation=(9,))
          (3): LeakyReLU(negative_slope=0.2)
          (4): Conv1d(64, 64, kernel_size=(1,), stride=(1,))
        )
        (shortcut): Conv1d(64, 64, kernel_size=(1,), stride=(1,))
      )
      (17): LeakyReLU(negative_slope=0.2)
      (18): ConvTranspose1d(64, 32, kernel_size=(4,), stride=(2,), padding=(1,))
      (19): ResnetBlock(
        (block): Sequential(
          (0): LeakyReLU(negative_slope=0.2)
          (1): ReflectionPad1d((1, 1))
          (2): Conv1d(32, 32, kernel_size=(3,), stride=(1,))
          (3): LeakyReLU(negative_slope=0.2)
          (4): Conv1d(32, 32, kernel_size=(1,), stride=(1,))
        )
        (shortcut): Conv1d(32, 32, kernel_size=(1,), stride=(1,))
      )
      (20): ResnetBlock(
        (block): Sequential(
          (0): LeakyReLU(negative_slope=0.2)
          (1): ReflectionPad1d((3, 3))
          (2): Conv1d(32, 32, kernel_size=(3,), stride=(1,), dilation=(3,))
          (3): LeakyReLU(negative_slope=0.2)
          (4): Conv1d(32, 32, kernel_size=(1,), stride=(1,))
        )
        (shortcut): Conv1d(32, 32, kernel_size=(1,), stride=(1,))
      )
      (21): ResnetBlock(
        (block): Sequential(
          (0): LeakyReLU(negative_slope=0.2)
          (1): ReflectionPad1d((9, 9))
          (2): Conv1d(32, 32, kernel_size=(3,), stride=(1,), dilation=(9,))
          (3): LeakyReLU(negative_slope=0.2)
          (4): Conv1d(32, 32, kernel_size=(1,), stride=(1,))
        )
        (shortcut): Conv1d(32, 32, kernel_size=(1,), stride=(1,))
      )
      (22): LeakyReLU(negative_slope=0.2)
      (23): ReflectionPad1d((3, 3))
      (24): Conv1d(32, 1, kernel_size=(7,), stride=(1,))
      (25): Tanh()
    )
  )
  (1): Resample()
)
Sanity Checking:   0%|          | 0/2 [00:00<?, ?it/s]Sanity Checking DataLoader 0:   0%|          | 0/2 [00:00<?, ?it/s]Sanity Checking DataLoader 0:  50%|█████     | 1/2 [00:00<00:00, 251.28it/s]Sanity Checking DataLoader 0: 100%|██████████| 2/2 [00:05<00:00,  2.67s/it]                                                                            Training: 0it [00:00, ?it/s]Training:   0%|          | 0/10110 [00:00<?, ?it/s]Epoch 0:   0%|          | 0/10110 [00:00<?, ?it/s] Traceback (most recent call last):
…
